checkpoints/ppo_full.pt (torch, 164443 bytes, 7 tensors)

shared.0.weight f4 [128, 180]
-0.008055889 2.9581067e-26 -5.296883e-15 -5.4231553e-09 -2.35779e-05 -3.8238722e-06 6.8001276e-09 4.722471e-12
7.5631564e-19 -4.1085266e-10 -2.0078783e-09 -7.972262e-09 -3.93046e-14 -1.8130023e-20 3.6678036e-11 5.3123526e-11
-2.3706779e-12 -1.3611684e-10 -1.406328e-07 -3.430272e-07 2.4651683e-09 -3.4202788e-08 1.9205531e-12 -2.1023182e-07
1.7935609e-16 -5.995478e-10 2.281739e-11 1.1043633e-20 4.359994e-14 2.351719e-10 -6.1239165e-12 2.187403e-07
-3.712503e-16 7.3573114e-20 2.6218592e-14 2.5014955e-12 -5.8248424e-17 -2.341965e-12 -1.1184974e-09 8.088207e-26
3.2025795e-07 5.3311267e-09 3.0342707e-07 -5.099975e-16 4.0736553e-11 -7.8973783e-10 1.6109019e-36 1.1792495e-20
-8.104167e-15 7.8222175e-37 3.6452428e-16 3.1034608e-09 -1.9884376e-10 -8.870736e-10 2.6928648e-10 2.2535805e-26
-2.7580702e-10 -1.26864925e-11 -5.4772067e-09 -6.627257e-09 -3.1437917e-09 -4.825e-09 2.4148434e-09 -1.2146356e-09
-1.8563947e-15 7.436699e-11 -6.2810126e-09 -5.959103e-13 -9.584696e-10 5.8868443e-15 -1.1466247e-09 -7.780977e-14
2.4718381e-36 8.285202e-12 1.2746687e-08 1.4533663e-36 -5.908321e-21 -8.0357535e-21 -9.0808354e-11 4.5959165e-09
9.8507843e-32 -1.9664717e-15 2.3428364e-12 -4.545062e-14 -2.7986066e-34 -9.394175e-11 -3.582613e-08 6.1500733e-21
1.84507e-10 -4.5914943e-17 -3.2811318e-15 3.8926995e-12 -1.234357e-08 5.657938e-27 9.498234e-38 -6.091946e-08
-5.846334e-07 -2.601112e-07 -2.5588434e-07 -2.5664005e-07 -2.4144057e-07 -2.5696997e-07 -2.7948118e-07 -4.114378e-07
-5.877661e-07 -2.8341424e-07 -2.4646414e-07 -2.9889156e-06 -2.9747287e-07 -2.5508564e-07 -3.428106e-07 -2.0072882e-06
-1.117799e-06 -2.7526892e-07 -2.4044232e-07 -2.9816587e-07 -1.7750466e-06 -3.0508934e-07 -3.9196016e-07 -2.4019354e-07
-6.504758e-07 -1.2055078e-06 -3.3842753e-07 -2.4724767e-07 -1.7301888e-06 -2.4243624e-07 -2.460432e-07 -2.405274e-07
-8.647015e-07 -6.80922e-07 -4.9270864e-07 -7.588846e-07 -2.402488e-07 -2.4114803e-07 -8.5553734e-07 -1.2545272e-06
-4.481337e-07 -1.2409408e-06 -1.5146827e-06 -2.5697724e-07 -2.4453377e-07 -2.0779457e-07 -2.405272e-07 -2.5113198e-07
-5.97195e-08 -8.544247e-07 -3.0381096e-07 -9.441342e-08 -2.5980887e-07 -2.426777e-07 -9.095469e-07 -4.967258e-06
-5.8988485e-06 -3.3246792e-07 -2.607842e-07 -1.1146491e-06 -4.887619e-07 -3.4298887e-07 -7.527904e-07 -4.0851845e-07
-7.9426576e-07 -4.1239534e-07 -2.7693812e-07 -2.401805e-07 -2.4133166e-07 -9.4954356e-07 -4.4912377e-07 -2.4015284e-07
-1.475017e-06 -2.519014e-07 -2.9930032e-07 -4.1025626e-07 -2.4120698e-07 -3.7052274e-07 -2.4547398e-07 -1.1600439e-06
-3.232979e-07 -4.053457e-07 -4.1962338e-07 -3.7996663e-06 0.04068121 0.06366402 -0.022579584 -0.014001984
-0.0325691 0.009949298 -0.048047498 -0.009340977 0.03515715 -0.051611044 -0.14599971 0.07185109
-0.17357278 -0.116094254 -0.30545747 -0.18068282 -0.19217235 0.15144394 0.075677626 -0.07530102
-0.0029933313 -0.13360704 0.04700969 -0.12958257 0.07591179 -0.025652086 0.15544607 2.0677968e-13
-0.10674685 0.15406315 0.0075315787 0.16757448 0.11066862 0.10627388 0.1698325 0.18489653
-0.028857553 0.046603035 0.05412952 7.1611383e-10 0.17987388 0.2328278 0.0014468472 3.2094138e-15
7.2457534e-37 -0.02681866 0.00043700356 0.09396587 -0.010223411 2.7235674e-22 0.093181774 -0.021500925
-1.2545616e-23 -2.6743032e-14 -0.09286585 -0.13796994 -0.12221803 0.03587583 -0.027020082 -0.008973691
0.025745453 -0.10590775 0.08206306 -0.056618433 0.06718435 0.012124412 0.0015380416 -0.0024469427
0.06999947 0.1384348 0.10254444 0.036175195 0.03619546 -6.8868135e-28 -0.07596025 -4.0758764e-15
00000000: d9fc 03bc 757a 1215 1fd7 bea7 9456 bab1
00000010: 28c9 c5b7 d04e 80b6 8ea6 e931 3d28 a62c
00000020: 9839 5f21 5fde e1af f8fa 09b1 61f6 08b2
00000030: 1e03 31a9 b53b ab9e cc4f 212e c6a3 692e
00000040: 56d2 26ac 7ca9 15af da00 17b4 4d29 b8b4
00000050: b367 2931 5de6 12b3 9c25 072c 15bc 61b4
00000060: 93c8 4e25 6dcd 24b0 32b4 c82d bb9b 501e
00000070: 4f5b 4429 8149 812f 5677 d7ac e0de 6a34
00000080: e002 d6a5 38b8 ad1f f527 ec28 f006 302c
00000090: cd4f 86a4 17cd 24ac a1b9 99b0 1a41 c815
000000a0: ebef ab34 162d b731 b3e6 a234 2cff 12a6
000000b0: 4829 332e dc14 59b0 560a 0904 02c1 5e1e
000000c0: e0fd 11a8 9016 8503 4a22 d225 a944 5531
000000d0: 8ba1 5aaf 41d6 73b0 b40a 942f 0e2f df14
000000e0: 63a0 97af e22e 5fad 0532 bcb1 f8b5 e3b1
000000f0: 2b0a 58b1 26c9 a5b1 60f2 2531 31f0 a6b0
00000100: 70c4 05a7 e588 a32e 5fd0 d7b1 ddbb 27ab
00000110: 27bb 83b0 8e18 d427 4597 9db0 4736 afa9
00000120: de47 5204 3cc1 112d 86fc 5a32 0847 f703
00000130: c635 df9d 85ca 179e 8fb0 c7ae 1cea 9d31
00000140: b1bd ff0b 00b3 0da7 cadc 242c ffb0 4ca9
00000150: d3ff b987 8194 ceae 3fdf 19b3 dc57 e81d
00000160: 1bde 4a2f ccbe 53a4 336e 6ca7 52f6 882c
00000170: 980f 54b2 4f22 e013 8448 0102 d4d2 82b3
00000180: b4ef 1cb5 69a5 8bb4 7a60 89b4 57c8 89b4
00000190: 579f 81b4 aff5 89b4 9a0b 96b4 95e3 dcb4
000001a0: fbc6 1db5 2828 98b4 c651 84b4 2e95 48b6
000001b0: 5cb4 9fb4 b4f2 88b4 880b b8b4 f3b4 06b6
000001c0: 4807 96b5 acc8 93b4 2416 81b4 9b13 a0b4
000001d0: 233e eeb5 29cb a3b4 986e d2b4 f3f3 80b4
000001e0: 5b9c 2eb5 efcc a1b5 20b1 b5b4 76bd 84b4
000001f0: d638 e8b5 2f28 82b4 eb17 84b4 d621 81b4
00000200: d61d 68b5 9bc8 36b5 ae42 04b5 27b6 4bb5
00000210: 8bfb 80b4 2277 81b4 14a8 65b5 3a61 a8b5
00000220: 0797 f0b4 678e a6b5 1a4c cbb5 aff6 89b4
00000230: 7748 83b4 231e 5fb4 cf21 81b4 51d3 86b4
00000240: 243f 80b3 9e5b 65b5 761b a3b4 54c0 cab3
00000250: dc7b 8bb4 5e49 82b4 9627 74b5 6cac a6b6
00000260: b9ee c5b6 0b7e b2b4 e801 8cb4 0d9b 95b5
00000270: 7633 03b5 0824 b8b4 5d13 4ab5 5952 dbb4
00000280: 8735 55b5 2f67 ddb4 16ae 94b4 28f2 80b4
00000290: 5f90 81b4 23e4 7eb5 1a1f f1b4 5bee 80b4
000002a0: 33f9 c5b5 113d 87b4 86af a0b4 3141 dcb4
000002b0: 3c7f 81b4 42ec c6b4 b0c9 83b4 ceb2 9bb5
000002c0: ba91 adb4 4a9e d9b4 9948 e1b4 c5fd 7eb6
000002d0: 57a1 263d 4862 823d d2f8 b8bc 9468 65bc
000002e0: 2d67 05bd 6102 233c 74cd 44bd e60a 19bc
000002f0: f200 103d 1a66 53bd f380 15be aa26 933d
00000300: 10bd 31be d3c2 edbd ec64 9cbe eb04 39be
00000310: d4c8 44be 1f14 1b3e dffc 9a3d 6c37 9abd
00000320: c42b 44bb 49d0 08be 3c8d 403d 4bb1 04be
00000330: a477 9b3d 5324 d2bc 412d 1f3e 2fd0 682a
00000340: 189e dabd bbc2 1d3e 76cb f63b a598 2b3e
00000350: 3ba6 e23d 1fa6 d93d 92e8 2d3e 8455 3d3e
00000360: ad66 ecbc d3e2 3e3d eab6 5d3d 08d8 4430
00000370: dc30 383e 696a 6e3e 23a4 bd3a 3c43 6727
00000380: 6a8f 7603 ceb2 dbbc a01d e539 2e71 c03d
00000390: 1880 27bc 2aa1 a41b 16d6 be3d b522 b0bc
000003a0: e2aa 7299 3ce1 f0a8 7330 bebd fe47 0dbe
000003b0: 724d fabd 89f2 123d 3859 ddbc 6306 13bc
000003c0: 21e8 d23c 2ae6 d8bd ad10 a83d bbe8 67bd
000003d0: f397 893d 78a5 463c 1d98 c93a e35c 20bb
000003e0: e25b 8f3d dac1 0d3e d202 d23d 712c 143d
000003f0: b141 143d 7840 5a92 0c91 9bbd 53d9 92a7

shared.0.bias f4 [128]
-2.8204206e-06 -0.051977523 -7.499019e-09 -0.037268177 -7.5268593e-07 -0.0007406138 0.014150233 -5.3044485e-10
0.0067857495 0.029815994 0.03660564 0.056624807 0.059528194 -0.00791442 0.0395832 0.093978986
-0.08042419 -0.057807352 0.002192975 0.07289055 0.11240725 -0.00038575055 -0.04129929 0.0051476434
-1.6794671e-10 -5.326119e-07 0.02662023 0.048318733 -0.04557161 0.056655012 0.024204561 -0.020847913
-4.1776985e-07 0.012100702 -0.014593584 -0.012400389 -0.008412543 0.022861768 -0.011195643 0.023708852
0.0738851 -0.052425645 -0.053876687 -0.049761727 -0.06296703 -0.014052766 5.8843046e-09 0.00861688
0.02278905 0.01913772 -0.032148246 -0.07243007 0.06323325 0.008823301 0.10646555 0.0034437461
-1.0682787e-09 -0.037973102 0.029950028 -0.001050119 0.005887757 -0.04085352 -2.221477e-14 -0.0325175
0.005251992 -0.017020885 0.051805753 0.0033789976 0.029770568 -0.010127907 -0.059005342 0.087883085
-0.013156244 -0.007305478 0.021930823 -0.010896916 -2.8101194e-05 0.05125579 0.017620547 -2.4216608e-15
-0.012798824 0.035668682 -4.9659026e-25 -0.02215342 -0.040620536 -0.0067440933 0.02011183 -0.02955445
-0.0027250694 -0.049417682 -1.4924859e-12 0.06260533 -4.2103576e-13 -1.2517364e-05 0.0063557727 2.1258904e-09
-7.2393063e-28 -3.03277e-07 0.07444599 0.09331535 -0.072131954 -0.07794496 0.01680318 -0.07100182
0.050948936 -5.3690746e-05 0.015252398 0.025917567 -0.02915471 -5.012221e-09 0.06893034 0.0723588
-0.10163078 -6.0146474e-05 -1.299105e-13 0.012675398 -0.00016880498 0.119171076 0.042639703 -1.1423068e-09
0.039933246 -0.02923556 0.037462007 -0.002984113 -2.6644436e-15 -2.2115618e-09 -0.0004945836 0.014532042
00000000: 7546 3db6 62e6 54bd 09d5 00b2 84a6 18bd
00000010: 2f0c 4ab5 c025 42ba 61d6 673c bdce 11b0
00000020: fe5a de3b ac40 f43c ccef 153d 6aef 673d
00000030: d6d3 733d 7cab 01bc fe21 223d 0e78 c03d
00000040: 70b5 a4bd 67c7 6cbd 04b8 0f3b a447 953d
00000050: c635 e63d 903e cab9 7229 29bd 90ad a83b
00000060: cca8 38af d0f8 0eb5 ab12 da3c dde9 453d
00000070: 4ca9 3abd 160f 683d a548 c63c 3ec9 aabc
00000080: da49 e0b4 0642 463c ee19 6fbc 002b 4bbc
00000090: c3d4 09bc 9a48 bb3c ee6d 37bc 1139 c23c
000000a0: 1251 973d 46bc 56bd cdad 5cbd f4d2 4bbd
000000b0: dcf4 80bd 933d 66bc e42e ca31 d02d 0d3c
000000c0: 1ab0 ba3c b5c6 9c3c e1ad 03bd 3756 94bd
000000d0: 6f80 813d 9b8f 103c 9c0a da3d 79b0 613b
000000e0: b7d2 92b0 af89 1bbd c359 f53c 26a4 89ba
000000f0: 16ee c03b 0556 27bd c617 c8a8 1231 05bd
00000100: e718 ac3b 626f 8bbc 4532 543d 2c72 5d3b
00000110: 68e1 f33c 85ef 25bc 96af 71bd 0cfc b33d
00000120: 498d 57bc cb62 efbb 45a8 b33c fa88 32bc
00000130: dbba ebb7 97f1 513d f758 903c c27f 2ea7
00000140: 29b2 51bc 5319 123d efaf 1997 177b b5bc
00000150: b861 26bd 8efd dcbb 91c1 a43c 2d1c f2bc
00000160: 1497 32bb 326a 4abd 790c d2ab 3937 803d
00000170: a605 edaa ab01 52b7 1644 d03b 0f17 1231
00000180: 3b6c 6592 13d2 a2b4 2477 983d 1e1c bf3d
00000190: ebb9 93bd 9ba1 9fbd d3a6 893c 6769 91bd
000001a0: d5af 503d 0032 61b8 32e5 793c 1451 d43c
000001b0: dcd5 eebc f637 acb1 5a2b 8d3d da30 943d
000001c0: cc23 d0bd c945 7cb8 2744 12aa 79ac 4f3c
000001d0: 3e01 31b9 f70f f43d f8a6 2e3d 59ff 9cb0
000001e0: 0b91 233d 6a7f efbc c371 193d 1c91 43bb
000001f0: 4ffe 3fa7 35fa 17b1 f2a6 01ba cd17 6e3c

shared.2.weight f4 [128, 128]
-0.0016080406 0.07713439 -8.8277107e-13 -0.1066883 -0.00043762368 -0.030828722 -0.036021758 -6.8419444e-17
0.0708321 0.025735473 0.024209518 0.02770448 0.045946505 -0.08118298 -0.075448684 0.0627747
-0.08762769 -0.02974911 -0.010198032 -0.017674211 0.07674875 -0.005829432 0.040248413 0.082492776
-3.4879788e-12 0.006953109 0.02741679 0.04382966 0.018272564 -0.084355555 0.03275949 0.06884784
6.713625e-08 -0.08799568 0.05849371 0.035126716 2.0440307e-15 -0.03791136 0.010938444 -0.011210853
-0.06362986 -0.0067044487 -0.08003738 0.021417033 0.01123902 -0.07767921 -1.6977873e-29 0.023532696
0.054337513 0.065598436 -0.013873121 0.14350195 0.07064241 -0.025458217 0.10581333 -2.8326832e-07
6.492749e-35 -0.077752344 0.009702373 2.6211396e-07 -3.15569e-05 0.09734863 -4.3228434e-37 0.036274686
0.012997959 0.13135983 -0.013966776 -3.0664498e-06 -0.06832153 0.012840344 -0.042441856 0.12678531
-0.0047526853 0.012809845 -0.02719389 0.019571463 -0.00053263694 0.07091293 0.023606176 -1.2500806e-19
0.09400782 0.03432989 9.367487e-19 0.034059636 0.013587503 0.027324285 0.08344979 0.025855973
0.072589375 0.049188066 2.1781493e-14 -0.051818516 -1.7881788e-07 -0.0062348475 0.0037801696 1.3719701e-24
-2.972425e-16 0.006774712 0.039040785 -0.024857655 0.06639474 0.0131772235 -0.039714713 -0.060957976
-0.06930821 -0.0053406716 -0.08372925 -0.08991607 0.015384953 0.0074101365 0.01534007 0.016119119
0.029824572 0.0008416606 7.1984705e-19 -0.004867112 -0.00046074615 -0.13157149 0.07186858 1.647154e-13
0.041179523 -0.0127089955 0.071006194 -0.00852076 2.05423e-07 -4.0086082e-17 -0.013527892 0.20447133
-0.0023570466 -0.027173238 4.503913e-19 -0.08373323 -4.7838522e-08 -0.057336085 0.011731494 -5.684611e-09
0.06395422 -0.026747104 -0.011777589 0.070169926 0.0401446 -0.06817929 -0.0465648 0.06106706
0.009682 0.010773707 -0.005317054 -0.0012443234 0.071458496 -0.0041715265 0.10574405 0.08265632
4.6276444e-08 0.003338396 0.056898173 -0.011634727 0.04706559 -0.03258877 0.04763732 0.027012445
6.8679244e-15 0.048739232 0.01794139 -0.02610405 -9.288409e-06 0.021317141 0.02563025 -0.031589314
-0.047694523 0.0034425997 0.03362717 -0.048589863 -0.025332052 -0.0036771956 7.3709627e-37 0.019950017
0.06284714 -0.00056253426 -0.019727442 0.105508395 0.063560046 0.0015283765 0.07795392 -1.6814929e-10
-9.4203235e-27 0.04706398 0.0128007205 1.6705319e-10 -1.0467836e-05 0.055606674 -1.921698e-16 0.042095866
0.0033227457 0.08256882 0.055691198 7.222504e-23 0.078558624 -0.003998327 0.0022859387 0.056667272
0.062686734 0.0048277336 -0.004273919 -0.0029235112 0.0055417204 0.008151034 -0.02581362 -7.2600986e-19
0.012377425 -0.0027463718 -1.7027451e-08 -0.023098052 -0.04069984 0.034383696 -0.056548417 0.037115037
-0.0033199403 -0.06885616 3.8516074e-08 0.01251261 -1.5048387e-36 -0.0046394807 -0.018400198 -6.754179e-37
-1.9636356e-15 0.0034296236 -0.038906194 -0.057033733 -0.07023527 0.03752879 -0.0048233126 -0.053598106
-0.07796863 -0.00705194 0.0058199656 9.008228e-05 -0.0070232926 -5.9067974e-05 -0.058996804 -0.026394313
0.056426264 7.6287135e-05 -1.5298818e-14 0.0060644466 4.3067297e-10 -0.03805232 0.09664601 -8.23234e-37
0.062380858 -0.059070293 0.07063885 -0.008152404 -1.4072687e-07 6.8050205e-08 0.018220158 0.18605863
00000000: e4c4 d2ba a3f8 9d3d 5c7a 78ab 657f dabd
00000010: db70 e5b9 848c fcbc 8d8b 13bd b6c3 9da4
00000020: 6c10 913d 33d3 d23c 0a53 c63c 81f4 e23c
00000030: 6732 3c3d 4343 a6bd d784 9abd 0690 803d
00000040: 2576 b3bd 68b4 f3bc a515 27bc 82c9 90bc
00000050: 732e 9d3d d204 bfbb 85db 243d f9f1 a83d
00000060: d771 75ac e8d6 e33b 2d99 e03c bb86 333d
00000070: 58b0 953c 9bc2 acbd d12e 063d 1900 8d3d
00000080: 8b2c 9033 1437 b4bd 1a97 6f3d 08e1 0f3d
00000090: b649 1327 f148 1bbd 2937 333c baad 37bc
000000a0: 5f50 82bd feb0 dbbb a3ea a3bd c672 af3c
000000b0: de23 383c 4716 9fbd 142d ac8f a4c7 c03c
000000c0: 0391 5e3d 7958 863d 164c 63bc 2df2 123e
000000d0: f8ac 903d c08d d0bc a9b4 d83d 1a14 98b4
000000e0: 5c9b ac06 9f3c 9fbd b4f6 1e3c abb8 8c34
000000f0: f75b 04b8 b85e c73d 4719 1383 c494 143d
00000100: 64f5 543c 3183 063e e8d4 64bc 35c9 4db6
00000110: 29ec 8bbd 4e60 523c 83d7 2dbd 02d4 013e
00000120: 6abc 9bbb 62e0 513c b9c5 debc 5554 a03c
00000130: a9a0 0bba cc3a 913d bd61 c13c 5e95 13a0
00000140: 2c87 c03d 809d 0c3d 5e3d 8a21 1e82 0b3d
00000150: 1e9e 5e3c 2ed7 df3c b9e7 aa3d e8cf d33c
00000160: bda9 943d 6d79 493d b430 c428 a73f 54bd
00000170: 1601 40b4 b14d ccbb b9bc 773b 564d d417
00000180: 4059 aba5 67fe dd3b 3be9 1f3d 48a2 cbbc
00000190: f7f9 873d 48e5 573c e5ab 22bd 12af 79bd
000001a0: 76f1 8dbd cd00 afbb 3e7a abbd eb25 b8bd
000001b0: 2b11 7c3c bbd0 f23b eb54 7b3c 3e0c 843c
000001c0: a952 f43c e3a2 5c3a 1b76 5421 4b7c 9fbb
000001d0: 4d90 f1b9 adba 06be d62f 933d fb73 392a
000001e0: dcab 283d 6439 50bc b26b 913d a89a 0bbc
000001f0: 3f92 5c34 4bdd 38a4 17a4 5dbc ef60 513e
00000200: ae78 1abb 699a debc 9bee 0421 547c abbd
00000210: 0377 4db3 3ed9 6abd 7435 403c 5e52 c3b1
00000220: 6efa 823d be1c dbbc caf6 40bc 40b5 8f3d
00000230: aa6e 243d 95a1 8bbd bbba 3ebd 7421 7a3d
00000240: 40a1 1e3c 3484 303c af3a aebb 9118 a3ba
00000250: d558 923d 4db1 88bb 5690 d83d b747 a93d
00000260: 7dc1 4633 fec8 5a3b 0f0e 693d 959f 3ebc
00000270: d9c7 403d cd7b 05bd 5a1f 433d 3449 dd3c
00000280: 6c71 f727 caa2 473d d2f9 923c 29d8 d5bc
00000290: 6ad5 1bb7 49a1 ae3c 88f6 d13c cc63 01bd
000002a0: 555b 43bd 3d9d 613b a5bc 093d 2a06 47bd
000002b0: 2a85 cfbc 1bfd 70bb 24d2 7a03 386e a33c
000002c0: 00b6 803d 0977 13ba 729b a1bc c914 d83d
000002d0: c52b 823d ce53 c83a 4ea6 9f3d d1e1 38af
000002e0: b796 3a94 29c6 403d 1dba 513c 4bad 372f
000002f0: 039f 2fb7 d3c3 633d 848e 5da5 b76c 2c3d
00000300: 6cc2 593b d719 a93d 741c 643d 22a1 ae1a
00000310: 58e3 a03d 6604 83bb b0cf 153b f11b 683d
00000320: e761 803d f731 9e3b 3b0c 8cbb 6198 3fbb
00000330: 5297 b53b ea8b 053c 1677 d3bc c147 56a1
00000340: afca 4a3c 79fc 33bb c343 92b2 2038 bdbc
00000350: e0b4 26bd ebd5 0c3d 509f 67bd f005 183d
00000360: 5b93 59bb 7504 8dbd df6c 2533 b101 4d3c
00000370: 7c04 0084 c906 98bb 03bc 96bc 32d5 6583
00000380: af7e 0da7 89c3 603b 1a5c 1fbd 349c 69bd
00000390: 82d7 8fbd cab7 193d e10c 9ebb b089 5bbd
000003a0: 04ae 9fbd f613 e7bb 69b5 be3b 8eea bc38
000003b0: a623 e6bb c1bf 77b8 a2a6 71bd e338 d8bc
000003c0: 3a1f 673d 58fc 9f38 accc 89a8 44b8 c63b
000003d0: d5c3 ec2f c0dc 1bbd 58ee c53d e610 8c83
000003e0: 1283 7f3d b1f3 71bd 1aab 903d a991 05bc
000003f0: b51a 17b4 ff22 9233 7142 953c 2786 3e3e

shared.2.bias f4 [128]
-0.038979646 -0.042438447 0.042961504 0.009708216 -1.5350633e-08 0.05617106 0.044085387 0.06049605
-0.007934198 0.09454674 0.0020750037 0.07075561 0.08567699 0.082695596 0.008045472 -0.072600685
6.7330804e-37 -0.089512214 -2.7515613e-08 -2.020715e-24 -0.053081095 0.14426786 0.032408856 0.10434572
0.04978796 -0.013174468 0.010708738 0.05416326 0.045175314 -0.06414016 -0.07107892 0.024407893
0.09439693 -2.7927557e-13 -0.064233154 0.07471017 0.038974117 0.072120816 -0.058978092 0.016198026
0.022669643 -0.035582785 -3.0398378e-05 6.2736693e-37 -0.0009968659 -2.6521911e-05 0.0034118558 0.08100705
-0.08102236 -3.720919e-10 -0.014412105 -1.6776521e-36 -0.073656805 -0.037608065 -0.056059968 0.01852471
-0.08601112 -2.038242e-07 -0.0065599214 -0.00035674978 -0.0489755 -4.014669e-07 1.3235729e-07 -0.010323361
-2.8310575e-15 0.07848093 -0.046408534 0.008562467 -0.07325768 0.050116193 -0.008719533 3.6583594e-13
0.10273321 -0.0012331038 -4.703195e-05 -0.0012950163 0.02042003 3.5911165e-15 0.0007087455 0.039742444
-0.03611168 -3.330647e-12 -0.003951802 -5.7160378e-05 -0.01300976 -0.0007710759 0.08183167 0.098074645
-0.0333791 -0.09016698 -0.055257875 -0.08665248 -0.021619702 -0.0033465275 -0.012779511 0.059738044
3.8087531e-19 -1.9687435e-13 -0.05440726 -0.03421614 6.734819e-07 -0.0053944252 0.0069492497 -1.1201322e-14
-0.03745871 -0.0092597725 -0.08477222 -2.7528535e-09 -0.0010192868 -0.015712421 -6.514901e-08 -0.06093322
0.0029770087 -6.443147e-19 -0.023879351 0.06263037 0.00033316071 -0.009655622 -4.623359e-20 -0.0011954074
0.046681445 -0.004867898 -0.03950659 -0.006456962 0.032049652 4.0918197e-10 0.051851317 -0.055478536
00000000: 1fa9 1fbd f0d3 2dbd 67f8 2f3d 360f 1f3c
00000010: 66dc 83b2 a013 663d e192 343d b5ca 773d
00000020: 70fe 01bc b9a1 c13d c9fc 073b 51e8 903d
00000030: 6b77 af3d 4f5c a93d 28d1 033c abaf 94bd
00000040: 671d 6503 2e52 b7bd 795b ecb2 6258 1c98
00000050: 906b 59bd f4ba 133e 26bf 043d 35b3 d53d
00000060: 76ee 4b3d b9d9 57bc b473 2f3c 4bda 5d3d
00000070: c009 393d eb5b 83bd d391 91bd 10f3 c73c
00000080: 2d53 c13d da37 9daa ac8c 83bd a501 993d
00000090: 53a3 1f3d 14b4 933d 0393 71bd b9b1 843c
000000a0: b0b5 b93c 41bf 11bd 0500 ffb7 5e7b 5503
000000b0: 45a9 82ba 5f7b deb7 7199 5f3b 06e7 a53d
000000c0: 0def a5bd 488f ccaf c020 6cbc 07b8 0e84
000000d0: 61d9 96bd ea0a 1abd 239f 65bd 22c1 973c
000000e0: 9926 b0bd c5da 5ab4 9cf4 d6bb 250a bbb9
000000f0: 899a 48bd 3189 d7b4 181e 0e34 5023 29bc
00000100: cbff 4ba7 9cba a03d e016 3ebd 9749 0c3c
00000110: 1f08 96bd a346 4d3d 5fdc 0ebc 84f2 cd2a
00000120: ca65 d23d 19a0 a1ba 2c44 45b8 89bd a9ba
00000130: e847 a73c 3462 8127 1bcb 393a f9c8 223d
00000140: d7e9 13bd 9a5f 6aac 1e7e 81bb 7dbf 6fb8
00000150: e326 55bc 0722 4aba 5d97 a73d 5cdb c83d
00000160: 86b8 08bd 77a9 b8bd 1556 62bd db76 b1bd
00000170: cd1b b1bc 6a51 5bbb 2761 51bc e1af 743d
00000180: 40d4 e020 2ba9 5daa 26da 5ebd 3926 0cbd
00000190: 53c9 3435 b8c3 b0bb 88b6 e33b fbc8 49a8
000001a0: 4e6e 19bd 4db6 17bc 0f9d adbd b62c 3db1
000001b0: 9799 85ba 56b7 80bc 0ce8 8bb3 1d95 79bd
000001c0: eb19 433b 0b2b 3ea1 a19e c3bc 5a44 803d
000001d0: 13ac ae39 9d32 1ebc fb54 5a9f 37af 9cba
000001e0: 0b35 3f3d e382 9fbb aad1 21bd ec94 d3bb
000001f0: 7f46 033d 3ef3 e02f 0c62 543d 763d 63bd

policy_head.weight f4 [3, 128]
0.03425038 0.011064114 0.0014244418 -0.06238683 -1.298698e-07 0.047268346 0.068783835 0.14061871
0.044005286 0.0069675017 0.007977977 0.037961602 0.06444386 0.05762415 -0.027481804 0.043656573
5.609129e-10 0.06499265 -1.9878408e-07 7.3816018e-37 -0.05652774 -0.013597076 0.0226595 -0.05300128
-0.021328414 -0.00188434 0.08034739 0.039137132 0.08669508 -0.0761262 -0.058823068 -0.054985654
-0.083262414 -6.98553e-17 -0.05349806 0.03940256 -0.041398667 0.05973387 -0.034596734 -0.066110246
0.016528724 0.032146327 1.3080253e-05 2.5522529e-19 -0.009095129 0.0011253224 0.016553326 -0.052628532
0.092673115 6.6666395e-08 0.08365796 5.2146763e-32 0.047963604 0.0061101015 0.03357089 0.093987346
0.03389371 -1.6920927e-36 -0.056611165 -0.0069703353 0.085348085 -4.0879486e-06 -1.1960373e-16 -0.006929055
-1.1933727e-07 0.030427583 0.07337733 -0.0019996073 -0.04955102 4.604015e-06 0.016470838 -2.7053686e-09
0.02075381 0.0032423835 5.969584e-05 0.07328845 0.009284886 1.639478e-23 -3.3754102e-05 -0.023951886
0.08548838 6.3950774e-20 0.0038694476 -0.0034311125 0.014487712 -0.015873201 0.12074734 -0.06316952
-0.0004475877 0.10295106 -0.06646345 0.09155437 0.073949896 -0.0010845126 -0.0042425203 -0.03606356
1.1603466e-08 1.8767089e-10 -0.08266082 0.052851327 -5.336895e-10 0.045639146 0.08630764 -2.2816096e-10
-0.04662473 0.042429425 0.022231955 -1.4401544e-11 -1.3066599e-06 0.004546806 -1.312174e-07 0.06134449
0.07271358 -1.2950732e-10 0.062533416 -0.08118559 -6.3229754e-06 -0.050797608 4.4494855e-10 -0.005851573
-0.073549196 0.07354693 -0.006121049 -0.022822114 0.06512558 5.294933e-05 0.09667702 -0.024976077
-0.043331843 -0.024136772 -0.04748489 0.05365219 2.5085221e-19 -0.024143906 -0.123107485 -0.08066971
-0.053485923 -0.09973865 -0.00046034652 0.04233626 -0.080610156 0.009792433 0.012934965 -0.12007567
2.1296807e-17 -0.05928195 3.4517664e-09 3.8924916e-10 -0.099123746 -0.13221374 -0.05852602 -0.05206212
-0.022153625 -0.00014409807 0.055460315 0.07201794 -0.07410662 -0.052857723 0.056000847 -0.004662186
-0.020590216 2.600766e-10 0.051649097 -0.07157184 -0.0019113609 -0.027486313 -0.10178019 0.016048247
0.060553834 0.056817584 -7.273487e-09 6.400667e-37 2.3977591e-07 -0.0033159675 0.0075107655 -0.14855653
-0.0059645944 -4.1449586e-09 0.06781155 9.240349e-17 0.063540965 -0.06613878 -0.084441945 -0.090874515
-0.0424789 2.868261e-11 0.010106942 -0.050211545 -0.024011502 -3.4062787e-22 1.1897134e-08 -0.10040502
-3.195336e-09 -0.023869058 -0.08667576 -0.032783404 -0.01783564 -0.010005353 -1.3494607e-06 1.6230407e-16
-0.061259437 0.0064520463 -0.00055886596 0.045066442 -0.043890055 -6.749118e-12 0.0007180774 -0.0663383
-0.060791973 6.86554e-10 -0.097820565 9.9607345e-09 -0.061632276 -0.005547705 -0.10766713 -0.10541839
-0.007189495 -0.0027346518 -0.017891355 -0.030435184 -0.015077292 -0.0012086468 0.009924757 0.072603635
-6.475393e-08 3.087152e-17 -0.036392305 -0.017577998 -4.7373767e-33 -0.08993274 -0.013908384 4.5672778e-17
-0.11150317 -0.024885554 0.01330625 -2.4424913e-14 5.4176756e-08 -0.0051983413 -6.6572373e-12 -0.07080061
-0.008950354 -6.4528505e-16 -0.08938121 -0.015883977 6.5303305e-12 -0.022618672 -8.340753e-21 0.00012694861
-0.03222612 -0.059284598 0.011975407 0.01214767 -0.07967845 -2.8678962e-12 0.009656099 -0.02983841
00000000: 204a 0c3d 4246 353c 56b4 ba3a 5589 7fbd
00000010: 5772 0bb4 749c 413d 8ade 8c3d 5afe 0f3e
00000020: e33e 343d a44f e43b 10b6 023c a07d 1b3d
00000030: 24fb 833d 4d07 6c3d 8521 e1bc 3cd1 323d
00000040: bd2e 1a30 de1a 853d 5a71 55b4 d22e 7b03
00000050: a289 67bd 45c6 5ebc 6aa0 b93c df17 59bd
00000060: edb8 aebc f5fb f6ba 2c8d a43d 424e 203d
00000070: 318d b13d 0ee8 9bbd 75f0 70bd a338 61bd
00000080: 7c85 aabd 4a13 a1a4 c820 5bbd 9464 213d
00000090: a691 29bd 81ab 743d 4eb5 0dbd cf64 87bd
000000a0: 3f67 873c deab 033d 4273 5b37 8ea8 9620
000000b0: bc03 15bc 8e7f 933a d79a 873c 0491 57bd
000000c0: 67cb bd3d 3d2a 8f33 dd54 ab3d 7861 870b
000000d0: 7c75 443d 3f37 c83b a181 093d 707c c03d
000000e0: 21d4 0a3d 84f2 0f84 1ce1 67bd 6967 e4bb
000000f0: faca ae3d 362b 89b6 cae4 09a5 200d e3bb
00000100: 2e23 00b4 4443 f93c db46 963d d80b 03bb
00000110: 03f6 4abd 307c 9a36 daed 863c 59e9 39b1
00000120: e503 aa3c 2b7e 543b ec61 7a38 4118 963d
00000130: a21f 183c 828f 9e19 3193 0db8 bf36 c4bc
00000140: 8814 af3d dfff 961f 8f96 7d3b 84dc 60bb
00000150: de5d 6d3c 8408 82bc 624a f73d 055f 81bd
00000160: 34aa eab9 01d8 d23d fd1d 88bd dc80 bb3d
00000170: 0b73 973d 3426 8eba d704 8bbb 62b7 13bd
00000180: 9558 4732 a958 4e2f 134a a9bd a27a 583d
00000190: 0fb3 12b0 1df0 3a3d 0fc2 b03d 9add 7aaf
000001a0: 93f9 3ebd 7aca 2d3d ca1f b63c ca5a 7dad
000001b0: 7e60 afb5 60fd 943b c4e4 0cb4 5c44 7b3d
000001c0: dcea 943d 1265 0eaf 8511 803d a144 a6bd
000001d0: f229 d4b6 2711 50bd f19c f42f 8dbe bfbb
000001e0: f6a0 96bd c69f 963d 1593 c8bb 71f5 babc
000001f0: 8f60 853d e915 5e38 9afe c53d a19a ccbc
00000200: bb7c 31bd 7bba c5bc 847f 42bd 66c2 5b3d
00000210: b713 9420 71c9 c5bc c71f fcbd 2936 a5bd
00000220: 0e14 5bbd c743 ccbd aa5a f1b9 c968 2d3d
00000230: f016 a5bd 7170 203c 2ded 533c 3cea f5bd
00000240: aa6d c423 a1d1 72bd 1e34 6d31 f3fd d52f
00000250: 6401 cbbd 0a63 07be fbb8 6fbd 173f 55bd
00000260: 857b b5bc 0819 17b9 5b2a 633d 247e 933d
00000270: 36c5 97bd 5781 58bd 2561 653d 40c5 98bb
00000280: d0ac a8bc 87fa 8e2f 018e 533d 4294 92bd
00000290: a186 faba fa2a e1bc 2272 d0bd 9d77 833c
000002a0: 4c07 783d 8eb9 683d 45ea f9b1 accd 5903
000002b0: 8dba 8034 b450 59bb de1c f63b 341f 18be
000002c0: a572 c3bb 716b 8eb1 c8e0 8a3d 6511 d524
000002d0: c421 823d c573 87bd e6ef acbd 6b1c babd
000002e0: 5bfe 2dbd 7f4b fc2d 9697 253c 9faa 4dbd
000002f0: c5b3 c4bc 9ce5 cd9b 2664 4c32 26a1 cdbd
00000300: f294 5bb1 0b89 c3bc 1083 b1bd e447 06bd
00000310: 0c1c 92bc 7eed 23bc 1e1f b5b5 b51f 3b25
00000320: 2deb 7abd b06b d33b dc80 12ba 9797 383d
00000330: 0fc6 33bd a776 edac 5c3d 3c3a 60dc 87bd
00000340: 0101 79bd f1b7 3c30 2656 c8bd c61f 2b32
00000350: 2072 7cbd 86c9 b5bb 9680 dcbd 99e5 d7bd
00000360: db95 ebbb d837 33bb e490 92bc 3553 f9bc
00000370: bf06 77bc 756b 9eba 739b 223c 37b1 943d
00000380: d90e 8bb3 a85e 0e24 1910 15bd bcff 8fbc
00000390: 6ec8 c489 a82e b8bd fedf 63bc e6a0 5224
000003a0: c65b e4bd cadc cbbc 7502 5a3c 0400 dca8
000003b0: f9af 6833 d956 aabb 103b eaac e9ff 90bd
000003c0: 81a4 12bc a2fd 39a6 7f0d b7bd 1d1f 82bc
000003d0: fdc3 e52c cb4a b9bc 688d 1d9e 821d 0539
000003e0: 89ff 03bd 68d4 72bd 7f34 443c 0507 473c
000003f0: 752e a3bd 6dcf 49ac 9d34 1e3c ae6f f4bc

policy_head.bias f4 [3]
-0.08190758 -0.025865156 0.035369392
00000000: 29bf a7bd 2ae3 d3bc 7fdf 103d

value_head.weight f4 [1, 128]
-0.1182124 -0.031100871 -0.049965948 -0.06611034 1.2678628e-06 -0.083064504 0.059829965 -0.068052724
-0.0015601577 -0.10174137 -0.002071036 0.017952653 -0.04715966 0.08599039 -0.053514365 0.056610916
-6.7469557e-37 0.09649031 -4.184147e-12 1.4888029e-08 -0.09530349 0.18125673 -0.119185016 -0.10758675
-0.08369316 0.03181321 -0.08396043 -0.09123681 0.08518781 0.08145075 0.069073565 0.0029557461
-0.107681915 -1.01610524e-07 0.06455714 -0.13387354 -0.0008882208 -0.06330928 0.09770726 -0.051455744
-0.11655269 -0.0066017797 -2.5885467e-05 1.2058719e-13 0.00497209 -0.0021865147 0.017750943 0.08744301
0.025035642 2.0408808e-07 0.098096445 -2.8598673e-28 0.028150683 0.05694436 -0.07260969 -0.031377323
0.018600117 1.1704711e-24 0.009393234 0.0134959305 0.025573006 -0.005611737 4.463493e-16 -0.046844862
1.1278926e-12 -0.08864843 -0.030737871 -0.10075503 -0.06023175 0.050593786 0.01223677 3.7037378e-08
0.15423873 -0.0010193624 0.004059317 0.10036218 -0.06691899 1.7069181e-28 0.0044252207 0.09349493
-0.079769574 -3.4832763e-14 -0.14906757 -0.00754264 0.054168437 0.0044810544 -0.04135257 0.085654154
0.013563197 0.035558086 0.082864985 0.05126484 0.09204037 -0.0057664094 0.022405796 0.040205535
-1.2899341e-36 2.6184396e-20 0.07025654 -0.11958619 2.2340063e-09 -0.054212652 -0.037089717 -0.0009129074
0.0554334 0.007264004 0.08221068 -4.9958558e-06 0.013541166 -0.03891392 -2.696282e-05 -0.11878097
-0.05849081 -5.629595e-11 -0.077106185 -0.052332718 1.474588e-06 0.0046910527 -6.428849e-10 0.010207214
-0.033416566 0.065037325 0.085113674 -0.04297076 0.013909707 0.003851929 0.07806423 0.078502655
00000000: 5819 f2bd 41c7 febc 18a9 4cbd dc64 87bd
00000010: 6f2b aa35 b91d aabd 4410 753d 3a5f 8bbd
00000020: 357e ccba c85d d0bd 38ba 07bb 7111 933c
00000030: 7d2a 41bd bb1b b03d e131 5bbd d9e0 673d
00000040: 4696 6583 b69c c53d 7237 93ac 3ec6 7f32
00000050: 7a2e c3bd 5d9b 393e 4617 f4bd 7156 dcbd
00000060: 5267 abbd 924e 023d 72f3 abbd 5dda babd
00000070: f276 ae3d a7cf a63d 7176 8d3d 31b5 413b
00000080: 5688 dcbd fa34 dab3 8936 843d 2516 09be
00000090: 7dd7 68ba 4ca8 81bd be1a c83d 42c3 52bd
000000a0: 2db3 eebd be53 d8bb 9e24 d9b7 e4c4 072a
000000b0: eaec a23b a14b 0fbb 6d6a 913c 5215 b33d
000000c0: 8c17 cd3c 4e23 5b34 cae6 c83d 0044 b591
000000d0: 439c e63c 7d3e 693d 64b4 94bd 8285 00bd
000000e0: 465f 983c 231f b517 14e6 193c 091e 5d3c
000000f0: 7b7e d13c a9e2 b7bb c4a6 0026 66e0 3fbd
00000100: 9dbc 9e2b 4f8d b5bd fdcd fbbc a758 cebd
00000110: 91b5 76bd 6e3b 4f3d bc7c 483c 0713 1f33
00000120: c2f0 1d3e 209c 85ba 0504 853b b08a cd3d
00000130: d30c 89bd a960 5811 7101 913b 457a bf3d
00000140: 3b5e a3bd 71df 1ca9 2ba5 18be 4028 f7bb
00000150: b9df 5d3d cfd5 923b 5061 29bd 726b af3d
00000160: 2c38 5e3c 5ba5 113d 1eb5 a93d 15fb 513d
00000170: a97f bc3d 26f4 bcbb 5c8c b73c 8fae 243d
00000180: 8e78 db83 fc4d f71e a9e2 8f3d 9be9 f4bd
00000190: 0e85 1931 160e 5ebd 63eb 17bd 2e50 6fba
000001a0: 220e 633d e206 ee3b 135e a83d 13a2 a7b6
000001b0: c4db 5d3c 3464 1fbd 372e e2b7 7043 f3bd
000001c0: 0f94 6fbd 9b97 77ae d9e9 9dbd d55a 56bd
000001d0: 75ea c535 67b7 993b 01b7 30b0 293c 273c
000001e0: cfdf 08bd 4a32 853d 1450 ae3d 1c02 30bd
000001f0: 8ae5 633c a570 7c3b 24e0 9f3d 00c6 a03d
