checkpoints/ppo_full.pt (torch, 164443 bytes, 7 tensors)

shared.0.weight f4 [128, 180]
-0.0062136333 3.839079e-05 2.2649514e-05 -1.0273181e-09 -0.00011052467 1.06707025e-08 -7.938302e-08 3.5663712e-09
-1.3270771e-07 -6.251084e-07 -0.0042336877 0.00485796 4.5103883e-05 -1.3839283e-06 0.00020641029 0.000111667294
-0.0025373022 6.8272e-39 -1.9902785e-38 -5.1764147e-23 -1.3856931e-20 -3.3394866e-07 -0.00019571207 1.5271675e-09
-3.7663192e-06 0.0063342876 8.185053e-06 1.6709915e-38 -1.1188697e-11 0.00089488894 -0.002692918 -5.364053e-06
0.0041248696 0.0069394354 -2.617625e-17 -0.0026882417 0.005493295 -0.0047493046 7.5957375e-17 -9.989019e-07
5.401392e-39 -1.5378095e-09 3.7957685e-07 -0.00019288548 0.00051338604 -0.004956849 -2.508358e-05 0.00072509615
0.0026010266 9.6357035e-33 -7.871452e-18 -2.878306e-38 2.9633789e-15 -1.1533141e-16 1.4593091e-38 -0.002193094
-5.7011448e-08 -0.0042492663 0.005624079 -0.00050442165 2.4660045e-38 0.0008221903 -9.681336e-09 0.0008936814
0.003078344 -2.285755e-39 1.4929183e-38 6.808431e-10 -0.005407528 -0.0012257702 5.6367324e-12 0.002251501
-0.000821489 -1.3675965e-09 -2.936516e-38 -4.428051e-39 -0.00032561965 2.432912e-39 0.0034373682 0.001741246
-5.2014786e-38 0.0010698469 0.0009396306 2.1122343e-38 -0.00013473321 0.00029240546 -1.3990657e-24 0.0015531516
0.0055329497 0.0038943666 -3.5458356e-07 -1.6374497e-05 9.903899e-19 8.17527e-05 -1.1490667e-26 -0.00716719
-0.013667231 0.007598767 -0.005785666 -0.009931581 0.019037066 -0.0115641365 -0.010403906 0.017193425
0.01797425 0.0010895742 0.0071409834 -0.0077105816 -0.006178214 -0.00013247861 0.0068433024 -0.011594871
-4.149827e-05 0.0063711535 -0.00013673036 0.013241103 0.004969024 -0.016002523 0.009686701 -0.003884208
-0.011155398 -0.0048606177 0.005984537 0.010336201 -0.00012459393 -0.008345958 0.007718566 0.013277745
0.0007326319 0.00046089804 -0.020594956 -0.0006154289 -0.0040280814 -0.0013274243 -0.005782701 0.004863573
0.001331732 0.003024222 0.0004929351 -0.014109177 -0.0047685937 -0.01096244 0.0009966418 0.018560648
-0.006416496 0.008407171 0.013009846 -0.0077862875 -0.008505801 -0.017334474 0.010986179 0.008063496
-0.005390847 0.013510012 9.375309e-06 -0.013597167 0.013666498 0.019738965 -0.0033129526 -0.0044806115
5.0870734e-05 0.009343474 -0.013123531 -0.005173846 0.012673796 0.005108556 0.0065651913 -0.01775099
-0.00017435334 0.019193752 0.010434633 -0.00018077587 -0.01743816 -0.013285901 0.016026901 -0.014231286
-0.010556275 0.0073133735 -0.016118035 0.001544125 -0.030943912 0.02978178 0.03725271 -0.031161597
0.00894076 -0.03773279 0.012907609 0.005868582 -0.0715432 -0.001845382 -0.04429775 0.00320146
0.021802012 -0.0095863985 0.006367358 0.0024296024 0.042180035 -3.3526362e-09 1.2560708e-38 -4.97978e-05
2.353337e-05 -0.006263395 -0.02977473 -0.002070452 0.007888822 0.044337943 0.010192462 9.830819e-35
0.0007325028 0.04133188 -0.046729684 -0.0069388454 -0.028373366 -0.02670761 -5.834291e-05 0.04926246
-0.04310542 -0.009575822 -0.0004877435 -0.009268523 7.7132164e-08 -0.0038563318 -0.005929989 -0.0263036
0.021282349 0.005721203 0.03433331 0.036269285 0.025149167 1.3237416e-05 -0.00015111532 2.6728193e-38
0.00097467564 -8.4711995e-05 2.19919e-39 -0.007369416 0.0041089677 0.011456059 -0.001264657 0.04171666
-1.8420878e-13 0.002552343 -0.00803713 -0.0481267 -0.03565642 -5.261852e-39 -6.773497e-08 0.0024049536
0.034955643 0.009582301 0.0030743924 -0.02017402 0.00014135039 0.007088689 -1.1025255e-12 2.9603369e-08
00000000: bc9b cbbb cc05 2138 76ff bd37 8b31 8db0
00000010: 7bc9 e7b8 3f52 3732 4779 aab3 4414 7531
00000020: 6b7e 0eb4 1fcd 27b5 bfba 8abb 862f 9f3b
00000030: ed2d 3d38 6abf b9b5 d76f 5839 ec2e ea38
00000040: de48 26bb 7557 4a00 deb8 d880 e950 7a9a
00000050: 01e0 829e 8e49 b3b4 0f38 4db9 6ee4 d130
00000060: dfc0 7cb6 db8f cf3b 8952 0937 72f4 b500
00000070: 69d5 44ad fb96 6a3a ab7b 30bb ddfc b3b6
00000080: ea29 873b 3464 e33b ec6e f1a3 362d 30bb
00000090: 1901 b43b 0ea0 9bbb 5225 af24 0212 86b5
000000a0: e2d0 3a00 dd5a d3b0 a5c8 cb34 4d41 4ab9
000000b0: c194 063a 106d a2bb 946a d2b7 6114 3e3a
000000c0: fc75 2a3b 3020 480a e233 11a3 bbb5 1c81
000000d0: b188 5527 d3f7 04a5 9ae7 9e00 03ba 0fbb
000000e0: c0dc 74b3 6e3d 8bbb 324a b83b 2a3b 04ba
000000f0: 1643 0601 4288 573a f752 26b2 f245 6a3a
00000100: 0bbe 493b c1e3 1880 7d90 a200 1326 3b30
00000110: a231 b1bb 06aa a0ba 2c53 c62c eb8d 133b
00000120: 3259 57ba 06f6 bbb0 0fe1 1f81 9b37 3080
00000130: eeb7 aab9 f87d 1a00 7845 613b 853a e43a
00000140: 0499 8d81 1b3a 8c3a 8b51 763a 8000 e600
00000150: 2c47 0db9 ff4d 9939 b47e d897 1f93 cb3a
00000160: bf4d b53b a138 7f3b 985d beb4 f75b 89b7
00000170: df27 9221 a672 ab38 9b98 6394 bfda eabb
00000180: 86ec 5fbc 14ff f83b af95 bdbb 12b8 22bc
00000190: 9ff3 9b3c 8177 3dbc 2575 2abc 3ad9 8c3c
000001a0: bc3e 933c 0bd0 8e3a e9fe e93b 0ca9 fcbb
000001b0: 9e72 cabb f5e9 0ab9 c83d e03b 6af8 3dbc
000001c0: 6e0e 2eb8 1cc5 d03b 475f 0fb9 36f1 583c
000001d0: 32d3 a23b b917 83bc f8b4 1e3c 328e 7ebb
000001e0: 21c5 36bc d145 9fbb ef19 c43b 2b59 293c
000001f0: 6ea5 02b9 7cbd 08bc 06ec fc3b e68a 593c
00000200: 180e 403a b0a4 f139 c1b6 a8bc bc54 21ba
00000210: fffd 83bb f8fc adba d07c bdbb 9b5e 9f3b
00000220: 838d ae3a 0732 463b 5138 013a 2d2a 67bc
00000230: dd41 9cbb ce9b 33bc c0a1 823a 800c 983c
00000240: 7841 d2bb 3bbe 093c 4027 553c 1d24 ffbb
00000250: ea5b 0bbc 0701 8ebc 60ff 333c c11c 043c
00000260: b4a5 b0bb 1959 5d3c a54a 1d37 a7c6 5ebc
00000270: 72e9 5f3c 9cb3 a13c 1f1e 59bb 18d2 92bb
00000280: 095e 5538 5f15 193c 1404 57bc 5e89 a9bb
00000290: c1a5 4f3c ac65 a73b d120 d73b 866a 91bc
000002a0: 9ed2 36b9 373c 9d3c 06f6 2a3c a78e 3db9
000002b0: 79da 8ebc 1cad 59bc d94a 833c 572a 69bc
000002c0: 3af4 2cbc 06a5 ef3b f809 84bc 3d64 ca3a
000002d0: 167e fdbc ebf8 f33c 4c96 183d 9b46 ffbc
000002e0: 447c 123c b38d 1abd 707a 533c 3c4d c03b
000002f0: 3e85 92bd bfe0 f1ba 8f71 35bd 96cf 513b
00000300: 229a b23c 4510 1dbc 45a5 d03b f739 1f3b
00000310: f9c4 2c3d 3364 66b1 25c6 8800 fbdd 50b8
00000320: 8769 c537 2a3d cdbb 22ea f3bc 6cb0 07bb
00000330: 1e40 013c b49b 353d 49fe 263c 8bac 0207
00000340: 6e05 403a 9e4b 293d a067 3fbd 415f e3bb
00000350: 436f e8bc ebc9 dabc 39b5 74b8 6fc7 493d
00000360: 4f8f 30bd e9e3 1cbc d3b7 ffb9 01db 17bc
00000370: dba3 a533 83ba 7cbb 5a50 c2bb a67a d7bc
00000380: 5258 ae3c ee78 bb3b 16a1 0c3d 1a8f 143d
00000390: a005 ce3c 4516 5e37 b674 1eb9 aa85 1101
000003a0: 6081 7f3a 68a7 b1b8 72f2 1700 247b f1bb
000003b0: 85a4 863b 32b2 3b3c d9c2 a5ba 17df 2a3d
000003c0: 9166 4faa 3645 273b 2bae 03bc 8120 45bd
000003d0: 770c 12bd e74b 3980 b275 91b3 6d9c 1d3b
000003e0: a62d 0f3d 15ff 1c3c bf7b 493b fd43 a5bc
000003f0: 7537 1439 3c48 e83b ab2a 9bab 7f4a fe32

shared.0.bias f4 [128]
-0.00030678062 -2.7467158e-05 7.954081e-06 0.068015404 0.0073628165 -2.6799725e-23 -1.0545713e-13 -0.0039491453
0.0041056885 0.037450638 -4.7602168e-08 0.004104576 -2.49511e-05 -0.023567228 -6.2889134e-09 0.062265463
-0.04662364 -2.4334015e-06 0.0019176597 0.059078094 -0.038899325 -1.4084999e-08 0.0017793644 0.040307295
0.006365815 0.004878138 -3.7039444e-10 0.0047967895 0.00089915 -4.3472603e-08 0.027538756 0.057731625
3.7190585e-38 0.00041979918 -1.4108278e-09 0.0033498155 -8.423005e-10 0.005017864 -5.210105e-37 -0.023664923
0.038455755 0.033364035 0.057283744 0.0004973968 0.009828052 0.022020863 -3.6010714e-36 -0.006497838
-0.043456696 0.0011360305 0.0035046877 -2.805154e-09 -2.41921e-17 -0.02091983 0.00022518248 0.012993125
-0.0004066827 -0.041583683 -1.4393985e-09 -0.017499091 0.055034414 -1.0527545e-08 -0.002271999 -1.8694219e-07
-1.9767358e-06 3.993551e-38 0.0038649866 -1.20779e-16 0.023088561 2.226685e-09 -0.000195967 -4.0894072e-05
0.04398999 0.036286768 -0.00022999902 0.012714396 0.013816863 0.031726535 0.03716728 2.13995e-38
8.364061e-29 4.2621217e-08 0.044871084 1.229781e-07 -0.0028308441 -0.0011594536 -0.039614234 -7.803213e-07
0.0023026485 -4.1184256e-07 -6.326845e-09 -2.7314922e-38 -0.0008871549 -0.0016067551 5.7865713e-13 0.0055887094
0.07261248 -2.5990671e-21 -2.7000518e-11 1.2396556e-07 1.5575685e-08 0.058627307 -4.5256394e-09 -0.060451917
-2.1432909e-38 -0.01605967 0.026799152 0.001241703 -0.0077261287 -0.014503083 0.03173819 -0.0058508846
-0.00062238314 -1.8692371e-34 -5.2853107e-30 0.015045293 -1.813491e-08 0.021273315 -0.03479031 -0.003195633
2.9727187e-07 -0.0054080565 -0.0018312775 -0.02592482 -0.00020293957 0.009179409 -0.00038394064 -0.021955656
00000000: 66d7 a0b9 4669 e6b7 8572 0537 a94b 8b3d
00000010: c843 f13b 7498 019a e677 eda9 d567 81bb
00000020: 0389 863b d765 193d 2373 4cb3 ae7f 863b
00000030: 144e d1b7 0f10 c1bc de15 d8b1 120a 7f3d
00000040: 6ef8 3ebd 854d 23b6 fb59 fb3a dffb 713d
00000050: e654 1fbd 7bfa 71b2 9039 e93a 4319 253d
00000060: 5498 d03b cad8 9f3b 62a0 cbaf 632e 9d3b
00000070: efb4 6b3a a2b6 3ab3 f598 e13c ff77 6c3d
00000080: 1c7c 4a01 7e18 dc39 17e7 c1b0 9488 5b3b
00000090: a187 67b0 e56c a43b 6a4a 3183 f1dc c1bc
000000a0: c883 1d3d baa8 083d 5ca2 6a3d bc63 023a
000000b0: d605 213c 1965 b43c 322c 9984 d1eb d4bb
000000c0: a6ff 31bd dce6 943a e7ae 653b cbc4 40b1
000000d0: fb21 dfa3 1060 abbc f61e 6c39 1ee1 543c
000000e0: 0738 d5b9 a753 2abd 55d4 c5b0 415a 8fbc
000000f0: c46b 613d a2dc 34b2 d1e5 14bb 47ba 48b4
00000100: 10a8 04b6 fa6d 5901 b74b 7d3b ab3f 0ba5
00000110: 3924 bd3c 4204 1931 7e7c 4db9 ad85 2bb8
00000120: d92e 343d 6fa1 143d e42b 71b9 0b50 503c
00000130: 2060 623c aff3 013d b83c 183d 1a05 e900
00000140: dc0d d410 860e 3733 beca 373d f60b 0434
00000150: af85 39bb cff8 97ba 8942 22bd 4577 51b5
00000160: 08e8 163b 361b ddb4 8463 d9b1 72b7 1481
00000170: f58f 68ba c199 d2ba a4e0 222b 7e21 b73b
00000180: dab5 943d 4561 449d c37f edad 651b 0534
00000190: 4bcb 8532 3023 703d f27f 9bb1 6e9c 77bd
000001a0: 3b62 e980 928f 83bc e589 db3c a4c0 a23a
000001b0: 772b fdbb 579e 6dbc e8ff 013d c7b8 bfbb
000001c0: 6d27 23ba d876 7887 ce65 d68e 8880 763c
000001d0: 17c7 9bb2 6045 ae3c 4980 0ebd d36d 51bb
000001e0: bc98 9f34 1136 b1bb 7a07 f0ba 4a60 d4bc
000001f0: 2dcc 54b9 3b65 163c a44b c9b9 59dc b3bc

shared.2.weight f4 [128, 128]
-0.017351154 0.015991317 4.449213e-13 -0.04409399 0.019103803 8.6874474e-38 -3.356163e-38 5.466146e-39
2.6507315e-38 -0.028363371 -1.394099e-38 -0.046289522 1.334206e-38 0.08227151 -4.138225e-39 0.06004364
0.059887424 -7.960566e-39 -0.028508864 0.015456011 0.07352704 -2.4853233e-38 -0.00039653326 -0.009549765
-0.006881856 -0.04240137 -6.98491e-39 -2.0975885e-38 -0.006348359 -3.083367e-39 0.017018106 0.08294161
6.256072e-39 0.0003564863 -3.0727314e-38 2.8944055e-38 -0.0020122041 -0.013170711 1.2977417e-38 0.08342731
-0.025309844 0.081354775 0.01893534 7.627928e-38 -2.0593721e-11 -0.025989197 1.1251076e-38 0.06479485
0.027506366 1.1429575e-38 2.5827733e-38 2.261719e-38 4.951016e-39 -0.06126698 -0.0043549445 -2.576247e-38
-2.9206443e-38 -0.02232106 -2.894576e-38 0.045689538 0.03425754 -2.3789e-40 -2.0491676e-05 -3.823056e-39
1.0418102e-38 1.9679073e-38 -0.0045395144 2.6036865e-38 -0.048118465 -2.3835706e-38 -0.024713239 -0.004743194
-3.1146414e-38 0.05738608 1.3697746e-38 -1.6386123e-38 7.817194e-39 0.040713686 2.8887874e-38 1.5282166e-38
1.3237855e-38 -5.100713e-05 7.310861e-38 2.7709836e-38 2.8016712e-38 -0.015531146 -0.06663466 -2.282256e-39
0.0494974 -2.1309599e-38 -1.829269e-38 -1.6747756e-38 0.0007319433 -4.416052e-39 -1.8274534e-38 -2.3356434e-38
-0.025388885 -8.360573e-39 -1.7906637e-38 -2.886365e-05 -0.00013754124 0.014660619 -1.0275688e-38 0.01260446
-3.047239e-38 -0.01271243 -0.014630485 3.4888566e-05 -0.09541614 -0.057149142 -0.04007662 -0.022374282
-0.0006842911 2.4734574e-38 1.3881375e-38 2.5580914e-38 -1.8616694e-38 -0.030201692 -0.049600698 0.039215486
1.929479e-38 -1.7943226e-38 -0.0005609382 -0.049541548 0.003452618 2.881339e-39 -0.02146318 -0.058893513
-6.054404e-39 -7.321462e-10 -1.0527244e-38 -2.49039e-13 -1.7932209e-08 -2.3205912e-38 1.28126e-38 -9.0217845e-13
-7.451077e-10 5.2817434e-11 -3.871162e-38 3.875539e-09 1.4793959e-38 3.3669758e-11 -7.2058836e-38 -6.987093e-16
-9.246705e-08 2.996169e-38 -6.264776e-27 -2.1331077e-08 9.924218e-09 1.083439e-38 -1.6857088e-38 -2.179428e-38
-1.3393615e-38 -4.7235098e-08 1.9834773e-38 -8.126067e-09 -3.662778e-39 -2.3670296e-38 -6.3663483e-09 -2.1017455e-07
1.3418547e-38 1.9829365e-38 2.4125023e-38 -2.786033e-25 2.902369e-38 -3.248351e-38 -1.709615e-39 -1.0373612e-11
5.2290217e-09 -6.0022846e-12 -5.0020343e-09 -6.43879e-39 2.946855e-39 -2.6374489e-12 -2.711439e-38 -2.734859e-38
-1.5867517e-13 -2.7073927e-38 -6.893739e-10 9.388131e-39 6.075784e-39 -3.0953785e-07 2.037503e-38 -3.6298e-08
8.544e-40 2.4568786e-07 -1.8673623e-38 -6.466374e-07 8.940522e-07 -3.177895e-39 -3.3314566e-11 2.1632649e-38
-1.1349423e-38 -1.992356e-38 -3.0924718e-38 -6.590022e-39 -3.046458e-11 -2.4779357e-38 1.9324316e-38 1.0799212e-38
-8.15417e-05 2.520343e-06 -7.019756e-39 -9.4066564e-07 2.8013327e-38 -1.4358279e-09 -4.0065355e-05 -1.0464603e-38
-3.3950544e-38 6.747928e-38 -8.924301e-05 -1.303145e-39 3.01606e-39 1.1762093e-38 -6.747909e-08 -6.868478e-39
-7.788531e-07 -6.040667e-39 4.91904e-39 -6.225871e-39 -4.249481e-39 -4.136826e-39 -2.1972782e-38 -4.334226e-08
-1.4588805e-09 2.920129e-38 -4.31116e-40 -7.418525e-39 2.22664e-40 1.7136388e-05 1.2474429e-38 -1.3659585e-06
-1.0793808e-38 6.859552e-09 -2.1304033e-11 2.213687e-38 5.8238356e-06 -4.5546116e-17 -4.974886e-08 -7.782804e-36
3.1928462e-38 -2.4733652e-38 1.3379133e-38 -7.0714543e-07 -8.58781e-39 -6.0811863e-06 -4.1812842e-07 -2.7973495e-11
2.0402261e-38 -2.453e-38 7.929586e-39 -1.6826438e-06 2.604205e-38 -2.4230562e-07 2.5709427e-38 -7.804242e-11
00000000: 0224 8ebc 3900 833c eb77 fa2a e69b 34bd
00000010: 947f 9c3c ac7e ec01 16ba 3681 6485 3b00
00000020: ce51 1001 4d5a e8bc cfcd 9780 159a 3dbd
00000030: 3c48 9100 f77d a83d b00f 2d80 52f0 753d
00000040: 844c 753d d2ae 5680 6c8b e9bc 353b 7d3c
00000050: 5895 963d 5a50 0781 cbe5 cfb9 9e76 1cbc
00000060: 3181 e1bb 0fad 2dbd 160f 4c80 3c68 e480
00000070: e505 d0bb 2c93 2180 8e69 8b3c 4add a93d
00000080: 621f 4400 c8e6 ba39 a04b 2781 2096 1d01
00000090: 2fdf 03bb f7c9 57bc c24f 8d00 f0db aa3d
000000a0: 9756 cfbc 559d a63d 491e 9b3c e6a6 cf01
000000b0: f024 b5ad 4ce7 d4bc 6c83 7a00 2ab3 843d
000000c0: 0855 e13c 0175 7c00 9b9e 0c01 8647 f600
000000d0: 6be9 3500 16f3 7abd ecb3 8ebb a443 0c81
000000e0: d703 1f81 a8da b6bc 8098 1d81 f424 3b3d
000000f0: a251 0c3d 2497 0280 8ae5 abb7 20a1 2980
00000100: 6e71 7100 4049 d600 35c0 94bb 18c2 0d01
00000110: de17 45bd 20c6 0181 6b73 cabc cc6c 9bbb
00000120: c493 2981 ab0d 6b3d be27 9500 d86d b280
00000130: 281f 5500 65c3 263d d247 1d01 7668 a600
00000140: c125 9000 7df0 55b8 4405 c701 e0dd 1601
00000150: 9989 1801 5976 7ebc c177 88bd 00da 1880
00000160: c9bd 4a3d 7e0a e880 9430 c780 ee5d b680
00000170: e2df 3f3a 2816 3080 f7fd c680 3c54 fe80
00000180: 5afc cfbc e009 5b80 6bfc c280 3720 f2b7
00000190: f238 10b9 1833 703c 70e4 6f80 f082 4e3c
000001a0: 50e8 2581 cc47 50bc b4b4 6fbc 5055 1238
000001b0: 8a69 c3bd 3815 6abd 6227 24bd 454a b7bc
000001c0: 0062 33ba f7aa 0601 a027 9700 9746 0b01
000001d0: c5b7 ca80 8a69 f7bc 1a2a 4bbd 6ba0 203d
000001e0: 061a d200 6a62 c380 ed0b 13ba 14ec 4abd
000001f0: 5145 623b 0060 1f00 8dd3 afbc 533a 71bd
00000200: 37ed 4180 3540 49b0 aca1 7280 4d32 8caa
00000210: 5809 9ab2 a4b0 fc80 5184 8b00 cff0 7dab
00000220: 4bd0 4cb0 254b 682e 20c4 5281 9a29 8531
00000230: 8a17 a100 c714 142e ae29 c481 a663 49a6
00000240: 4c92 c6b3 8020 2301 602c f893 893b b7b2
00000250: 2c7f 2a32 dff9 7500 b48e b780 9651 ed80
00000260: f3d7 9180 8adf 4ab3 47fb d700 d29a 0bb2
00000270: 56e2 2780 94df 0081 febe dab1 57ac 61b4
00000280: 731d 9200 34ec d700 6059 0301 7472 ac96
00000290: 1f05 1e01 68db 3081 b69d 1280 987e 36ad
000002a0: f6aa b331 c62f d3ac 5cde abb1 ba1c 4680
000002b0: a216 2000 0e98 39ac f29f 1381 5fe6 1481
000002c0: 01a7 32aa 8c67 1381 607e 3db0 4a3a 6600
000002d0: d028 4200 8f2e a6b4 4bdd dd00 13e6 1bb3
000002e0: b84d 0900 15e7 8334 7756 cb80 9594 2db5
000002f0: cdfe 6f35 ae9a 2280 de84 12ae 068f eb00
00000300: 9395 7b80 c8f2 d880 c45e 2881 4dc2 4780
00000310: 11fc 05ae 62e9 0681 556c d200 cf97 7500
00000320: 5e01 abb8 2a23 2936 3970 4c80 0d82 7cb5
00000330: e184 1801 b456 c5b0 d90b 28b8 0ef3 7180
00000340: 27d8 3881 32b2 b701 fa27 bbb8 a330 0e80
00000350: 8cd7 2000 ee13 8000 06e9 90b3 86ca 4a80
00000360: 6112 51b5 ecc6 4180 4890 3500 32cb 4380
00000370: d345 2e80 ca0b 2d80 2d43 ef80 5227 3ab3
00000380: cb81 c8b0 a8fc 1e01 c7b1 0480 d4c7 5080
00000390: b26c 0200 1dc0 8f37 a2d5 8700 fa55 b7b5
000003a0: bf88 7580 42b1 eb31 6b64 bbad 960c f100
000003b0: 5e6a c336 5d0b 52a4 73ab 55b3 9e85 2585
000003c0: c8d5 2d01 aea9 0681 94af 9100 aad2 3db5
000003d0: 5283 5d80 fe0c ccb6 227b e0b4 b60e f6ad
000003e0: 3429 de00 d48d 0581 7658 5600 33d7 e1b5
000003f0: 52c9 0d01 3b16 82b4 b6f9 0b01 fa9d abae

shared.2.bias f4 [128]
0.019715747 -6.214904e-29 -0.038788922 -3.04296e-05 -0.06839744 4.5504345e-05 0.031185307 0.036641736
-2.7534074e-38 0.07415107 -0.00043874397 -0.011075711 -1.9117879e-38 -7.135327e-09 -0.027122961 0.0031862953
-4.127581e-10 0.018302655 0.00844899 9.624316e-06 0.021508712 0.03406412 0.07519418 0.014119294
0.0057731117 -7.933463e-05 -2.0386751e-06 -0.00025801983 -0.013352734 0.07897158 1.8076543e-38 -0.0004007948
-9.828037e-28 6.199832e-05 0.02138876 -0.00014607479 0.05936324 3.399396e-09 0.013065658 -3.1011785e-23
-0.0012593503 2.858178e-38 2.3551783e-38 0.0039496557 -0.013169979 -0.00043866364 0.0040217293 0.03919651
0.022033963 0.0026195338 -0.0373485 0.009418513 -0.018582158 6.97906e-39 0.08497543 0.0076046847
0.054986127 0.029308068 -1.2611911e-21 -0.059022654 0.037035085 -0.0023287875 -0.0032595086 -0.04586585
0.04459585 0.06082664 -0.0022123759 -1.0101349e-25 0.0116637135 0.033401817 -0.07521815 -0.05915798
-0.009425344 0.005216037 0.032336395 -7.980828e-39 -0.062348135 -0.03186661 -0.010279225 0.07500496
0.0063711605 -0.0012977741 -1.0092702e-08 -0.0002529055 -0.029161165 0.039992344 -0.00026940525 0.051301863
0.04448236 -1.4746335e-24 -0.017742446 -2.7053967e-38 -1.8702968e-38 0.0056016557 -1.3243338e-06 -0.02372838
-3.2921655e-15 0.03964486 0.062793195 0.016126052 0.044763315 -1.0128272e-06 -0.0011172411 -0.0001801024
0.012080039 0.00073015457 1.2241219e-34 -0.015834024 -0.032363113 0.027946651 -0.013298834 0.00040689105
0.045235418 -5.782583e-26 -3.1475417e-38 0.012489652 -2.0066704e-09 0.019231923 -0.002530825 -3.7610937e-26
2.4583752e-38 -0.0071263798 -0.023512643 0.0065978114 0.009358498 -0.005847341 0.029497752 0.0039886055
00000000: eb82 a13c 0891 9d90 22e1 1ebd 1243 ffb7
00000010: f513 8cbd ebdb 3e38 5478 ff3c a515 163d
00000020: e6e8 1581 84dc 973d 3807 e6b9 e676 35bc
00000030: de2c d080 002b f5b1 f930 debc 2ad1 503b
00000040: 8aea e2af 73ef 953c a26d 0a3c 1f78 2137
00000050: 0a33 b03c d286 0b3d 68ff 993d 9c54 673c
00000060: 5f2c bd3b 7560 a6b8 2cd0 08b6 d646 87b9
00000070: 6dc5 5abc dabb a13d 0cd6 c400 c421 d2b9
00000080: 41bb 9b92 1805 8238 7b37 af3c a72b 19b9
00000090: de26 733d cf9a 6931 5711 563c bbf6 159a
000000a0: c910 a5ba 309d 1b01 653a 0001 1d6c 813b
000000b0: e5c6 57bc 70fc e5b9 b6c8 833b 858c 203d
000000c0: 9280 b43c 7cac 2b3b befa 18bd 1b50 1a3c
000000d0: 9c39 98bc c8fe 4b00 9907 ae3d b830 f93b
000000e0: 2239 613d 7917 f03c f895 be9c bdc1 71bd
000000f0: 1ab2 173d 929e 18bb 7b9d 55bb d4dd 3bbd
00000100: 23aa 363d 5b25 793d 82fd 10bb e818 fa95
00000110: 2919 3f3c 58d0 083d f90b 9abd a34f 72bd
00000120: c26c 1abc 4aeb aa3b 2b73 043d 4de7 5680
00000130: c260 7fbd 9086 02bd 326a 28bc 339c 993d
00000140: 2bc5 d03b 131a aaba 2c64 2db2 6798 84b9
00000150: 65e3 eebc 03cf 233d f63e 8db9 e721 523d
00000160: 2333 363d 4030 e497 9b58 91bc ba4b 1381
00000170: 44a8 cb80 188e b73b c3bf b1b5 0562 c2bc
00000180: bc39 6da7 a662 223d b899 803d c81a 843c
00000190: bd59 373d 7af0 87b5 6470 92ba dfd9 3cb9
000001a0: 5beb 453c d867 3f3a b6b6 2207 5bb6 81bc
000001b0: 2f8f 04bd 60f0 e43c 5ae3 59bc fe53 d539
000001c0: c648 393d 792b 8f95 545e 2b81 66a1 4c3c
000001d0: b8e5 09b1 448c 9d3c 33dc 25bb 873d 3a95
000001e0: c0d8 0501 6884 e9bb 969d c0bc 7432 d83b
000001f0: 6354 193c 0d9b bfbb 45a5 f13c d9b2 823b

policy_head.weight f4 [3, 128]
-0.030848548 3.3450125e-13 -0.043788366 0.002142639 -0.031266943 -4.4238987e-11 -0.005971498 -0.036914922
-1.5360821e-38 -0.04762245 -9.043228e-06 -0.005728454 -2.5439007e-38 0.0030594317 -0.03997282 -0.0074756807
0.00048239523 8.570664e-34 0.04618564 -1.2621276e-14 -0.048039053 0.04511264 -0.048641603 0.039124902
0.0020390106 -0.0054170545 -0.012464781 0.0006493378 0.041551452 0.02764509 6.5765756e-17 0.012111941
0.00091828837 6.827651e-31 0.07594905 0.0076366095 0.097119555 -0.0007689685 0.02931421 -1.0852292e-27
-0.04870588 1.1152348e-14 1.9712122e-06 -0.0017856227 -0.047846407 0.020640748 -0.060851645 -0.04841239
-0.024714103 -0.0025093828 -0.024997769 -0.03552358 0.07800388 1.03755125e-36 -0.083410986 0.00013383583
0.085524276 -0.0039454657 0.00019107404 0.051048893 0.06273552 0.0041006724 -0.02881143 -0.038516674
0.063026085 0.0036435479 0.034698572 0.00031724497 -0.00019482864 -0.0043552406 0.0733418 -0.0596779
-0.016094089 -0.065983474 0.0082717305 8.344326e-08 -0.051372506 0.02162717 0.00031258937 -0.031088255
-0.0046574073 -1.22126076e-26 -0.001310044 -0.0013660574 -0.012449959 0.009401402 -0.009018814 -0.10508527
-0.040396113 -1.205447e-38 0.04810847 -1.24676565e-29 1.2804257e-38 -0.0087039005 0.0012183697 -0.011721405
5.8444504e-05 0.054605007 -0.06469473 -0.01485949 -0.008410553 0.0017079387 -0.011949462 -0.012551832
0.041222233 -0.0217072 -2.842966e-38 0.018415881 -0.043684706 0.015021818 1.0649595e-06 0.00977251
-0.06922774 2.012269e-39 3.2556486e-07 0.015434453 -1.7147349e-38 0.05438478 0.04055978 -3.72143e-40
-1.5133508e-35 0.03226504 0.056109942 0.00046206536 -0.008961293 -0.0003145335 -0.060980797 2.6500897e-08
-0.004752718 2.9945115e-14 -0.0033121975 8.3304376e-14 0.04492711 -4.9734963e-06 -0.009902665 -0.050387356
-2.62926e-38 -0.06934885 7.302731e-32 -0.00023808178 -2.9872875e-38 -1.4726771e-38 -0.1605085 0.0009176134
6.726788e-24 1.4014058e-35 -0.08702416 6.3729595e-09 -0.018224142 -0.022531679 -0.14040904 -0.03536716
-0.09784652 0.0006526799 9.343908e-13 -0.02061777 0.025123212 -0.06527462 -1.5465253e-38 1.719649e-06
3.4051286e-38 2.9067801e-19 -0.03950285 0.02293273 0.06667313 -0.003813431 0.040544562 -1.6976286e-10
0.0076160957 1.1899443e-12 9.195946e-39 0.002320166 -0.01620531 -2.1274425e-38 0.0011302874 -0.041335557
-0.008243519 -0.0041799694 -0.057265252 0.0052102464 0.039148975 -1.2634262e-38 -0.15984504 0.0049774013
-0.06443086 0.006554674 6.188709e-39 0.0040814755 -0.026143927 0.009462638 0.038834903 -0.06527336
-0.0070460797 -0.044816945 0.010581495 3.6805555e-21 0.0011916177 -0.12550545 -0.13015465 -0.04252648
0.022072842 0.04618898 0.0069072386 8.532903e-39 -0.10433201 0.034897752 -0.000524883 -0.057990734
0.004443448 -1.3186473e-12 0.0009982245 4.4578275e-05 -0.12780918 -0.024314491 -0.01521003 -0.07807248
-0.07996689 -2.0927301e-38 -0.028722465 3.0244516e-38 2.918077e-39 0.079496145 -2.088007e-06 -0.055645872
-1.3869158e-38 0.06428964 -0.055117838 -0.015798062 -0.018221596 -0.0044347546 -0.0234969 0.000192982
0.06988404 -0.032770194 8.341334e-39 0.16331916 -0.07509593 -0.04048503 -4.965207e-05 -0.034916073
-0.031363394 1.2237629e-38 1.4786947e-38 -0.042816833 -1.9443009e-38 0.0007442959 0.019582601 -3.9718392e-38
-4.50745e-39 0.005905627 -0.008777441 -0.005672849 0.010151614 -0.0005096219 -0.0758485 9.54021e-10
00000000: 18b6 fcbc b64e bc2a 6e5b 33bd 846b 0c3b
00000010: c411 00bd ac90 42ae 8eac c3bb 1a34 17bd
00000020: b843 a780 c20f 43bd 5eb8 17b7 c1b5 bbbb
00000030: cd80 0a81 bf80 483b 8aba 23bd 8ef6 f4bb
00000040: fee9 fc39 9367 8e08 272d 3d3d 5d5d 63a8
00000050: 99c4 44bd 08c8 383d 6b3c 47bd 6f41 203d
00000060: eca0 053b 8c81 b1bb 1539 4cbc 5238 2a3a
00000070: db31 2a3d f577 e23c 40a5 9724 2a71 463c
00000080: 4ab9 703a e891 5d0d 2d8b 9b3d 863c fa3b
00000090: 9ee6 c63d 9a94 49ba 5b24 f03c 20f6 ab92
000000a0: d17f 47bd 21e7 4828 2b49 0436 8e0b eaba
000000b0: 98fa 43bd c916 a93c 933f 79bd 124c 46bd
000000c0: 3b75 cabc 7574 24bb 1fc8 ccbc 2c81 11bd
000000d0: 80c0 9f3d bb87 b003 61d3 aabd 4856 0c39
000000e0: 5a27 af3d f748 81bb 0c5b 4839 a518 513d
000000f0: 7b7b 803d ef5e 863b f305 ecbc a9c3 1dbd
00000100: d213 813d 97c8 6e3b 1720 0e3d e653 a639
00000110: ea4a 4cb9 68b6 8ebb 3a34 963d d070 74bd
00000120: c0d7 83bc 5822 87bd 2786 073c 6b31 b333
00000130: fa6b 52bd 762b b13c 09e3 a339 ccac febc
00000140: 2a9d 98bb 47e5 7194 c8b5 abba 480d b3ba
00000150: eafa 4bbc 5708 1a3c a6c3 13bc f236 d7bd
00000160: 6576 25bd f542 8380 630d 453d c6df 7c8f
00000170: 0f6d 8b00 ce9a 0ebc b4b1 9f3a 230b 40bc
00000180: 4f22 7538 80a9 5f3d ac7e 84bd 3875 73bc
00000190: 6bcc 09bc eadc df3a adc7 43bc 33a6 4dbc
000001a0: a5d8 283d 4cd3 b1bc 2ac9 1a81 e7dc 963c
000001b0: bcee 32bd 121e 763c bbef 8e35 e11c 203c
000001c0: 46c7 8dbd 63e9 1500 4bc9 ae34 cae0 7c3c
000001d0: d5b7 ba80 93c2 5e3d 0322 263d 620d 0480
000001e0: 54ed a085 5928 043d 8ad3 653d 5d41 f239
000001f0: 63d2 12bc f9e7 a4b9 00c7 79bd 17a4 e332
00000200: b0bc 9bbb 5edc 0629 7411 59bb b495 bb29
00000210: 7d05 383d 02e2 a6b6 ca3e 22bc f962 4ebd
00000220: 8926 0f81 c506 8ebd f996 bd0b 97a5 79b9
00000230: b6a4 2281 3f5c a080 575c 24be fe8b 703a
00000240: 711d 0219 e505 9505 b939 b2bd 25f9 da31
00000250: cc4a 95bc 5b94 b8bc 63c7 0fbe 28dd 10bd
00000260: c263 c8bd 9b18 2b3a fa80 832b 99e6 a8bc
00000270: 32cf cd3c b3ae 85bd d566 a880 b1ce e635
00000280: 9164 3901 0596 ab20 becd 21bd 6cdd bb3c
00000290: ec8b 883d c1ea 79bb 0e12 263d ffa7 3aaf
000002a0: 7190 f93b 4378 a72b 8e22 6400 ed0d 183b
000002b0: 00c1 84bc 71a8 e780 2726 943a 794f 29bd
000002c0: d30f 07bc 20f8 88bb f88e 6abd b7ba aa3b
000002d0: ad5a 203d 2f93 8980 6bae 23be 7819 a33b
000002e0: 54f4 83bd 97c8 d63b 9a63 4300 e6bd 853b
000002f0: ca2b d6bc 2e09 1b3c 5911 1f3d 0aae 85bd
00000300: cde2 e6bb f991 37bd 025e 2d3c 260c 8b1d
00000310: 0e30 9c3a 8084 00be 4347 05be 3f30 2ebd
00000320: 1bd2 b43c a830 3d3d 1e56 e23b 43ea 5c00
00000330: 05ac d5bd f2f0 0e3d 4d98 09ba b187 6dbd
00000340: 589a 913b 4795 b9ab dbd6 823a 8ff9 3a38
00000350: 69e0 02be 2f2f c7bc 7d33 79bc 77e4 9fbd
00000360: aec5 a3bd cde0 e380 604b ebbc b4aa 2401
00000370: 69c6 1f00 e0ce a23d b01f 0cb6 edec 63bd
00000380: 9205 9780 49aa 833d 3ec3 61bd f06a 81bc
00000390: 7545 95bc 6b51 91bb 927c c0bc 365b 4a39
000003a0: 5d1f 8f3d 0a3a 06bd 3fd4 5a00 233d 273e
000003b0: e5cb 99bd a1d3 25bd 8141 50b8 2804 0fbd
000003c0: e776 00bd 8841 8500 fe03 a100 b460 2fbd
000003d0: 33b7 d380 da1c 433a b16b a03c 5c3f 5881
000003e0: f014 3180 fd83 c13b 42cf 0fbc 4ee3 b9bb
000003f0: f552 263c 2698 05ba 7556 9bbd a11e 8330

policy_head.bias f4 [3]
0.037834737 -0.09951065 0.034337267
00000000: 99f8 1a3d 3dcc cbbd 3ca5 0c3d

value_head.weight f4 [1, 128]
-0.09378333 0.004786794 -0.077743046 0.009190445 -0.075043514 0.003965587 -0.029402914 0.11010953
2.8416522e-38 -0.0400113 0.00023285362 0.025440915 -6.3469105e-07 0.0002625629 0.06868739 0.0014856394
-0.00051350973 0.000212871 -0.018100483 0.0011046318 0.0128004635 -0.027040685 0.06955356 -0.07218828
0.15204026 0.0035648344 0.0018144831 -0.007915091 -0.016648697 -0.12307181 -5.1535553e-05 -0.005129746
-0.00052997476 0.0023312876 -0.0025162327 0.0070204376 -0.08549067 0.0015052971 -0.04748929 4.2138032e-05
-0.032618243 0.0020477935 -0.0021871426 0.05780267 -0.0878904 0.007592983 0.034624003 -0.11172878
0.021666363 0.033242773 -0.009380776 -0.07309269 -0.0795419 0.000632639 -0.017462464 0.01580272
0.0005123039 0.05205009 0.001479031 -0.08549527 0.067249395 0.010754345 0.018382544 -0.06668627
-0.049765896 -0.08451012 -0.04082478 5.651314e-05 0.03162271 0.063829415 0.078031145 -0.091850325
0.11555529 -0.06478132 0.037094764 -7.027455e-05 -0.07493043 0.03219219 0.049643207 -0.069421396
0.019212643 0.0066574966 -0.002238914 0.012307176 0.13121855 -0.07744412 0.005794041 0.1511247
-0.08344865 -4.2858687e-07 -0.06273524 -0.0045676134 2.4086185e-38 0.13868882 -0.0042582387 0.0006147898
-0.0020914446 0.0011533921 -0.09156443 -0.0745942 -0.05469279 -0.0048732753 -0.08504592 0.017054413
-0.01826871 0.0064824326 6.022121e-39 0.14604293 -0.066035114 -0.006731726 0.0371408 -0.0059450115
-0.07835699 -2.401608e-38 0.002366295 -0.08856553 0.005391884 -0.033322725 0.036744438 -1.9608148e-38
-0.00061308674 -0.0055150664 -0.08395319 0.017835174 -0.019029511 0.030603873 0.10588711 0.00080007926
00000000: 7911 c0bd 8ada 9c3b bf37 9fbd 8593 163c
00000010: 6ab0 99bd c1f1 813b 61de f0bc 1b81 e13d
00000020: dab6 1a01 e4e2 23bd 2b2a 7439 7769 d03c
00000030: a35f 2ab5 99a8 8939 f9ab 8c3d c9b9 c23a
00000040: 0e9d 06ba 2036 5f39 7747 94bc 4bc9 903a
00000050: 09b9 513c 6d84 ddbc 1972 8e3d 73d7 93bd
00000060: 71b0 1b3e ff9f 693b f3d3 ed3a 4cae 01bc
00000070: d962 88bc 130d fcbd e127 58b8 6e17 a8bb
00000080: 01ee 0aba 84c8 183b 61e7 24bb b30b e63b
00000090: bb15 afbd 644d c53a 2184 42bd 5ebd 3038
000000a0: b59a 05bd 4634 063b 2a56 0fbb 7ec2 6c3d
000000b0: e2ff b3bd 8fce f83b e6d1 0d3d 0fd2 e4bd
000000c0: a87d b13c 9329 083d d4b1 19bc 9fb1 95bd
000000d0: dde6 a2bd afd7 253a 710d 8fbc b574 813c
000000e0: 224c 063a 7a32 553d 0cdc c13a 2518 afbd
000000f0: 0dba 893d fe32 303c fd96 963c d092 88bd
00000100: 53d7 4bbd a413 adbd e237 27bd 8608 6d38
00000110: d186 013d ffb8 823d cbce 9f3d 061c bcbd
00000120: 40a8 ec3d 12ac 84bd aef0 173d 5d60 93b8
00000130: 2075 99bd f5db 033d ad56 4b3d ce2c 8ebd
00000140: d563 9d3c 2127 da3b beba 12bb 0aa4 493c
00000150: 285e 063e 069b 9ebd f0db bd3b 6fc0 1a3e
00000160: 20e7 aabd 8818 e6b4 557b 80bd ebab 95bb
00000170: 3e23 0301 7104 0e3e b288 8bbb d829 213a
00000180: 9e10 09bb 6b2d 973a 2286 bbbd d8c4 98bd
00000190: 8c05 60bd ffaf 9fbb 8e2c aebd b2b5 8b3c
000001a0: 43a8 95bc 966a d43b 3993 4100 478c 153e
000001b0: 6b3d 87bd d095 dcbb f420 183d 5fce c2bb
000001c0: a179 a0bd 88c1 0281 d813 1b3b d861 b5bd
000001d0: 67ae b03b 697d 08bd 5681 163d 8a83 d580
000001e0: 8eb7 20ba bbb7 b4bb a6ef abbd 121b 923c
000001f0: c7e3 9bbc f9b4 fa3c 57db d83d 69bc 513a
